models/MLP_Model.pth (torch, 607623 bytes, 20 tensors)

fc1.weight f4 [256, 200]
00000000: f68e cabd 037e cebc 66f1 8dbd 949f eabc
00000010: 3a25 15bc 4e2f 9abd 474e 04be 7021 b6bd
00000020: 204d 02bd ace9 a83c f74e bbbd 0719 edbb
00000030: f5b1 223d 296f c33c 96f4 60bd bf0b 9dbd
00000040: d163 1dbe 6169 3f3d d852 b43d f43c 58bc
00000050: 620c a2bc 794d 99bc 0405 7b3d e970 27bd
00000060: eeec 3fbd c0e1 b23c 4df2 1dbd 55c4 d6bc
00000070: 24d3 963c 4325 2bbb 0d69 69bd aa78 2cba
00000080: 7abf e23c e525 b73b 3b35 a63d c5d3 aabd
00000090: 7472 493b ce2f 2f3d 66c3 34bd 502c a6bd
000000a0: 4092 c0bd fc98 81bc 7fdb 683d 7eaf 5cbb
000000b0: fad6 b3bd a055 36bd e092 34bc 71a0 9fbb
000000c0: bed0 41bd 5da4 d83c b3cb 61bd d42d c53c
000000d0: 9340 913c e716 84bd 72df ce3c 8148 a8bc
000000e0: 3cb8 e8bb 0ab5 173c 2841 963d 95ca ed3a
000000f0: c0e6 d9bc 511c b03c 0fca 50bd 0ca4 88bd
00000100: c214 e6bc 3b35 3f3d 1615 67bd d129 4f3b
00000110: dded 28bd 54f5 9a3b 2401 8b3d 1cf2 dc3c
00000120: 02f7 be3c bdd7 963c f43c c2bd fd22 afbd
00000130: d608 2abd bc1d b03d 6766 3f3d b7c3 853d
00000140: 2ff3 cfbc fa04 613c 25e2 543d 1441 01bc
00000150: f59f aebc 1a33 903b 5d14 62bd 3bae 103d
00000160: 7a53 00bd a8a5 f33d 8ed1 33bd d900 ae3b
00000170: 8789 103d 8666 f33b 9fc7 92bd 3e47 d239
00000180: c507 03bd d7b5 5bbd 43ac 4f3a 0972 ecbc
00000190: 9947 b1bd 0ea9 2ebd c8fe bc3d 6773 04bc
000001a0: 0edf 4dbb 8d2d b9bd e649 8d3c 879c 08be
000001b0: c8e2 493a c6d2 c73d 5f65 3cbd 4177 403d
000001c0: 1a26 c6bb a8a8 30bd 0ac1 b53d 466a 943b
000001d0: 95d6 04bd 2432 083d 36b6 3f3d 6732 9bbd
000001e0: 4096 b6bc c7c3 8e3a a644 533d 59db bd3b
000001f0: 9cbc 56bd 8bd5 88bc 71d2 60bd 864d f6bc
00000200: 2205 9f3c 6e14 603d 6bde 80bd ad10 933c
00000210: 93b1 9ebd 9929 3fbd d536 913d 41eb fcba
00000220: cc7f b6bc 1197 c2bd 5616 c83d faeb d53d
00000230: 2973 9dbc 3b10 db3d 44a7 bfbc 6c09 80bd
00000240: 9502 cbbc c360 9b3d 9eb8 8dbb 4d3a af3c
00000250: 9176 a8bd aef4 1dbd d9e5 523d f576 29bd
00000260: 6ff6 a9bc 9b71 3d3c 53f3 11bd 342b 353c
00000270: 9137 83bb 743b f4ba 66a7 4c3d bc3e 46bb
00000280: f90c 93bd ac1f 10bd 69a1 173e d661 62bd
00000290: 30b7 9cbc 1678 473c 4eb1 0f3e 4763 253d
000002a0: 6e57 57bd 4cc7 183b dffc 493c fce6 583d
000002b0: e765 813d 9714 10bd 774a f93d e526 7fbd
000002c0: 7af6 9dbc a395 3bbc e30a 47ba 0388 693b
000002d0: 8767 843c 1a6d febd ff3c 03be db1b 713d
000002e0: 3999 913c 99ef 02bd 0a39 973d f43d 59bc
000002f0: c341 563d 7bb9 58bd ba8c df3b 419c a93d
00000300: ee25 96bc b8bf 05be c499 433d 14b0 0f3d
00000310: c31c 17bd d7a9 c03c eb5c 4bba 36b3 bd3a
00000320: 6f17 52bd 80e1 d3bd fc9e 2cbd 762e 3f3b
00000330: d1b2 4a3d 3bbd ad3d 942f bdbd 4afe 52bd
00000340: ed5e 36bd d1eb 09b9 9fb1 283d 4949 54bb
00000350: 9d8d 903d dccf 90bb 821c 243d f0d0 2ebd
00000360: 079d 213b b1cf 71bd 002f 1c3d db61 253c
00000370: 19ac 5a3c d16b 123c 6f96 16bd 39ad 47bd
00000380: 8f01 ae3c a24f 263d d785 bebd edf7 053d
00000390: 28f0 2cbd 088f b6bd 38ff 063e 27ad fcbc
000003a0: 21c3 af3d 45a9 b6bd f837 2fbc c498 823d
000003b0: 8422 15bc 5e7c ee3d 86f7 d6b9 d77b 95bc
000003c0: b306 003c 58d0 dcbd ab83 ec3c 6da6 b03d
000003d0: 5951 05bc c6d8 393d 35d7 9ebc 3b39 bf3d
000003e0: 6096 1b3c 1d20 d3bd 7c3c fdbc 8a92 4abd
000003f0: 2a60 17bb 7337 d7ba 06c7 2cbd e5bc 03be
-0.09890549 -0.025206571 -0.06930809 -0.028640546 -0.009103114 -0.07528554 -0.12920485 -0.088930964
-0.031811833 0.020619236 -0.09145921 -0.0072356495 0.039720494 0.023856716 -0.054920755 -0.07668256
-0.15370108 0.046731357 0.08804864 -0.013198126 -0.019781295 -0.0187137 0.06128408 -0.040879164
-0.046856813 0.021836162 -0.038561154 -0.026216665 0.018411227 -0.002611474 -0.05698495 -0.00065792596
0.027679194 0.005589234 0.08115622 -0.08341173 0.0030738385 0.0427702 -0.04413166 -0.08113921
-0.09402895 -0.015820019 0.056849953 -0.0033673937 -0.08781238 -0.044515252 -0.011021346 -0.004871421
-0.047318213 0.026445562 -0.055125903 0.024069704 0.017730987 -0.06449681 0.025253031 -0.020542385
-0.0071020406 0.009259472 0.07336646 0.0018142039 -0.026599288 0.021497877 -0.050973948 -0.066719145
-0.02808607 0.046681624 -0.056416593 0.0031610618 -0.04124247 0.0047289524 0.06787327 0.026970915
0.023311142 0.018413419 -0.09484282 -0.08551595 -0.041512333 0.085994214 0.046728518 0.0653147
-0.025384514 0.013734097 0.05197348 -0.007889051 -0.021316508 0.004400623 -0.0551952 0.03532241
-0.03132961 0.11896831 -0.04390102 0.0053101596 0.035287406 0.007427993 -0.07166981 0.000401074
-0.03198983 -0.053640213 0.00079220923 -0.02886297 -0.08656234 -0.042641692 0.09228283 -0.008084155
-0.0031413469 -0.09041891 0.017247152 -0.1334096 0.00077013345 0.09756999 -0.045995113 0.04698873
-0.0060470225 -0.043129593 0.0887471 0.0045292703 -0.032431204 0.033250943 0.04680463 -0.07577973
-0.022288442 0.0010892086 0.05157914 0.0057939705 -0.052425966 -0.016703388 -0.054888193 -0.030066263
0.019411627 0.054706983 -0.06292423 0.017952288 -0.07748713 -0.04667053 0.070905365 -0.0019296185
-0.022277735 -0.0950147 0.09769885 0.104453996 -0.019219952 0.10696455 -0.023395188 -0.06251797
-0.024781505 0.07586815 -0.0043249866 0.021390105 -0.0822574 -0.038563423 0.05148873 -0.041373212
-0.020747392 0.01156273 -0.035632443 0.011057664 -0.0040044268 -0.0018633441 0.04996433 -0.0030249795
-0.07180209 -0.035186455 0.14807667 -0.055269085 -0.01913032 0.012174627 0.1403248 0.04037788
-0.052573614 0.002331215 0.012328356 0.05295466 0.063182645 -0.035175886 0.12172406 -0.062292952
-0.019282568 -0.01144925 -0.000759287 0.0035634048 0.016162647 -0.12423153 -0.12816237 0.058864456
0.017773258 -0.03196678 0.07383926 -0.0132594 0.05230881 -0.052911263 0.006822196 0.08281756
-0.018328633 -0.13061416 0.047754064 0.03508003 -0.036892664 0.023518486 -0.00077576813 0.0014472965
-0.05129188 -0.10345745 -0.042143807 0.002917198 0.04948694 0.084833585 -0.092375904 -0.05151204
-0.044524122 -0.00013153187 0.041185018 -0.0032392314 0.070582606 -0.00441931 0.04006625 -0.042679727
0.0024660246 -0.05903596 0.03813076 0.010094131 0.013346695 0.008936838 -0.03676456 -0.048749182
0.021240978 0.040603288 -0.09302872 0.032707144 -0.04222122 -0.08914 0.13183296 -0.030844284
0.0858214 -0.08919004 -0.010694496 0.06376794 -0.009102467 0.11644815 -0.0004100168 -0.018247528
0.007814097 -0.10781926 0.028871378 0.08625493 -0.008137071 0.045372747 -0.019389728 0.09337088
0.009496301 -0.103088595 -0.03091263 -0.049456157 -0.002309809 -0.0016419723 -0.04218199 -0.12865026

fc1.bias f4 [256]
00000000: 5ee3 d3bc 6d5c a73c 4d47 933d 8ba5 0c3d
00000010: 048a ec3a 14ca 983c 4548 44bd 3127 f23c
00000020: a8ff 5bbd 9921 6dbd 8f85 773c d252 ffbc
00000030: a41d 703d b4bb 583d fadf 0d3d bd69 723d
00000040: 7085 3e3c 07cd 1cbb 743d 55bd 8b6e 45bd
00000050: de19 163d ab68 293d d851 88bc 985f 8a3d
00000060: f4cb 5ebd c507 703d 833e 683c 6126 83bc
00000070: 009d 46bd dc41 d03c 5a2d d03b d085 80bd
00000080: e0b1 9abd cbc2 38bd 230c dfbc a9bd 9c3c
00000090: 3e00 843b 4bb8 893d fa43 45bc 1059 343d
000000a0: 3cbe 93b8 24e1 6a3d 24e0 033d 969f 253c
000000b0: 04b1 1e3d 087e b6bc 2723 d7bc 99c3 b83c
000000c0: 6643 363d ef50 623b 9be9 eabb 011a 813d
000000d0: c9da 433d ebfa 81bd 81d3 40bd 1e5c 3e3d
000000e0: 5fec ebbc 7811 74bd 2f5f 7f3d 8b6d 413d
000000f0: 8ad0 7dbd 5302 0e3d 1b58 843d e9bc 49bd
00000100: 88dc 033d 59dd 333c b6e5 2e3d 427c b3bb
00000110: 50d2 0bbb d000 70bd 2e87 e9bb 75a4 893d
00000120: 84cf 6ebc 00d3 55bd 4589 fdbc bef3 873d
00000130: 8e03 32bd eacd de3b 8d24 bebc d662 b3bc
00000140: 77f4 c3bc 904b 183d d95d 993c 8765 203d
00000150: 7a53 93bc d40e 99bc 4f8b 203b fc37 6b3d
00000160: 0e77 c63b 0e1f 15bd 492b 1d3d f792 e5bc
00000170: bd27 82bd ad42 463d 7a91 723d 6941 7d3c
00000180: 4e3d b8bc c9ae 513c d191 053d 1903 febc
00000190: 0fda 1abd 5326 89bd a5bd e53c 5796 8ebc
000001a0: e9dc 41bd 6324 eebc 0a35 2fbd b1de 883d
000001b0: d43a 0c38 c6d3 933d 1655 5d3c 7360 7d3c
000001c0: 6a48 31bc d5da 103d 0a3f 85bd 674b 823d
000001d0: 5819 04bd 1afc 033d d15d a73c 3c9e 72bd
000001e0: 95c6 183d 5fc1 dd3c 6de2 11bd 2e12 d03c
000001f0: 30ef e0bc 87fa 313d 70da e13b 5f64 c6bc
00000200: 3786 7fbd e937 4ebd 2131 423d 3f80 94bc
00000210: f0f1 e6bc 15a1 e6bc 1b2a 923d 897d 22bc
00000220: 3b55 68bd 5869 07bc 66b0 1ebd 67f0 c43b
00000230: 268b 14bd 5018 60bd c3b4 0ebb e1ce c1bb
00000240: ac64 0f3d b36d f03c 60d5 253b d61a 313d
00000250: 583e 45bd 7b20 70bd a349 5d3c 88c4 993b
00000260: da7e 403d 93b3 adbc fa1b d439 d709 ae3c
00000270: e811 6b3d 5038 383d b582 8a3c b43a 52bd
00000280: f588 913d 87c9 d3bc 74df 1abc 6d84 a4bc
00000290: 87a8 52bd 224c ecbc 1610 0e3d a112 783c
000002a0: 06ce 97bc d977 2b3c 4fe5 fbbc 673f 913d
000002b0: d005 6d3d 55cf debc 77db 75bd 4733 e9bc
000002c0: 8beb 43bd 60a2 3c3b ca64 e33c ca7d 203c
000002d0: 00cd 20bc 5abc 1b3d 6556 80bd 2cd4 5e3d
000002e0: 4115 4abd 1f56 073d b05f 783d 23f8 86bd
000002f0: 88a1 6a3d f842 903c 14ba 87bc 5bde 493d
00000300: 9840 f53c 7841 94bd 877a f7bc c22f 0abb
00000310: cd8b 463d 3987 58bd 3057 833d 2fd6 dbbc
00000320: 3325 893d a270 843d 670f 3d3d 0142 12bd
00000330: d1f1 7ebd 97fb 003d fb1d 80bd b936 6b3d
00000340: 580d 443b b3f1 5f3d edc0 c7b9 0fcd 0c3d
00000350: 0358 63bd 9024 8bbd 270c 5abd cfbe cdbc
00000360: c0f7 e538 2f2e a63d f0db 25bd 221a 71bd
00000370: 59ad 8bbc 56b8 19bd 4ad2 7f3c 7856 65ba
00000380: 5801 77bd a4f1 2abd ffea aabc b786 32bd
00000390: a598 84bd dc8f b2bc a26b 3b3d 414e c13b
000003a0: 6399 40bc c411 4ebd d11a 123b 6d6e 4f3d
000003b0: e269 16bd 60ad 823d 7516 4e3d f991 5d3d
000003c0: 481f 58bd 95e1 87bd ed2f 903d 10ca 243c
000003d0: 0762 50bd 7315 083d 05e2 2ebd 53fe f3bc
000003e0: 61cd 853c 4cb9 97bc 627d 2cbd 5e9e 10bd
000003f0: 68b3 5c3b b14a 893d 8646 83bd b3c5 8cbc
-0.025865253 0.020429814 0.07191334 0.03433756 0.0018046503 0.018651046 -0.047920484 0.029559704
-0.05371061 -0.05789337 0.015107526 -0.031167421 0.058622018 0.052913383 0.03463743 0.05918287
0.011628494 -0.0023925917 -0.05206056 -0.048201125 0.036645763 0.041359585 -0.016640589 0.06756514
-0.054393724 0.05860116 0.01417506 -0.016009511 -0.04848957 0.02542203 0.0063530626 -0.06275523
-0.07553458 -0.045107644 -0.027227467 0.019133406 0.004028349 0.06724604 -0.012040133 0.04403025
-7.04494e-05 0.057343617 0.03219618 0.010108849 0.038743034 -0.022276893 -0.02626188 0.022554206
0.04449787 0.0034533103 -0.007168961 0.06303788 0.04781607 -0.06346687 -0.047076706 0.04647457
-0.028799234 -0.059586972 0.062346634 0.04722361 -0.061966456 0.034670185 0.06462117 -0.049252424
0.032192737 0.010978066 0.04269954 -0.005477459 -0.0021335073 -0.058594525 -0.0071267104 0.06720821
-0.014575843 -0.05220318 -0.030949244 0.06638287 -0.04346042 0.006799449 -0.023210788 -0.021897715
-0.02392028 0.037181437 0.018721508 0.039159324 -0.01798414 -0.018683828 0.0024497097 0.057426438
0.006056673 -0.03640657 0.038371358 -0.02802418 -0.06355236 0.04840343 0.05922077 0.0154574895
-0.02249017 0.01279802 0.032609764 -0.031007336 -0.037805613 -0.06696763 0.028044531 -0.017405672
-0.047329817 -0.029070085 -0.04277519 0.066831 3.343339e-05 0.07218127 0.013509056 0.01546489
-0.0108204875 0.035364944 -0.06506164 0.06362038 -0.032250732 0.032222845 0.020430477 -0.059232935
0.037298758 0.027069746 -0.035616327 0.025399294 -0.027457803 0.043451812 0.006892495 -0.024217783
-0.062383857 -0.05034629 0.047410134 -0.018127559 -0.028191537 -0.028152982 0.07136937 -0.009917625
-0.056721907 -0.008264862 -0.038742445 0.0060101035 -0.036265515 -0.054710686 -0.0021775223 -0.0059145545
0.035008118 0.029349184 0.0025304183 0.043238483 -0.04815516 -0.058624726 0.013506326 0.004692618
0.046995975 -0.021203792 0.00040456635 0.021244926 0.057390124 0.04497558 0.01690803 -0.051325515
0.071062006 -0.025852932 -0.009452689 -0.020082677 -0.05143025 -0.028844897 0.03468331 0.01514116
-0.018530857 0.010465586 -0.030748991 0.07092171 0.05786687 -0.027198473 -0.06002375 -0.028466834
-0.047832053 0.0028783306 0.02775802 0.009795615 -0.009814501 0.038021423 -0.062664784 0.05440156
-0.049336676 0.033041116 0.06063813 -0.06590297 0.057282954 0.017610058 -0.016568221 0.04928432
0.029938027 -0.0723905 -0.030209793 -0.0021085595 0.04847317 -0.052863333 0.06413114 -0.02683553
0.06696548 0.064667955 0.046157267 -0.035707477 -0.062242333 0.031489935 -0.06255718 0.057425234
0.002991518 0.05467386 -0.0003809998 0.034375247 -0.055503856 -0.06794083 -0.053234246 -0.025115399
0.00010965718 0.081142776 -0.040492952 -0.058862813 -0.017050432 -0.037529312 0.015614102 -0.00087485416
-0.060304016 -0.041734353 -0.020864008 -0.043585505 -0.06474427 -0.021797113 0.045756944 0.005899221
-0.01175532 -0.05030991 0.0022293816 0.05064242 -0.03672207 0.06380725 0.050314385 0.05409429
-0.052764207 -0.06634823 0.07040391 0.010057941 -0.050874736 0.03322358 -0.042696018 -0.029784357
0.016333284 -0.018520974 -0.042111762 -0.03530728 0.003367627 0.067036994 -0.06409936 -0.017184114

bn1.weight f4 [256]
00000000: d2ca 813f 7dab 803f 8e55 813f e293 813f
00000010: 276c 813f 44af 713f 6630 833f dde3 7c3f
00000020: c721 7c3f 9e42 733f 270f 823f fbf5 7a3f
00000030: b426 853f 49e5 7e3f 509d 813f 5a27 843f
00000040: 62d1 843f 6ca1 7f3f 44d5 803f 4e5e 7e3f
00000050: ac36 6f3f 3b31 823f 51db 7a3f 7d78 783f
00000060: 8534 7d3f 344b 793f ceff 823f e3c2 7c3f
00000070: 665f 7e3f 86d1 753f 97ac 853f 6588 833f
00000080: a6b4 853f 590e 7c3f 5bd0 873f 0a44 803f
00000090: 34bb 7c3f 5888 7e3f a0a4 7e3f 1756 7a3f
000000a0: 0613 843f 5d0c 7f3f d6d2 823f aa7b 763f
000000b0: f7d7 803f 3161 813f 7855 7b3f 06fb 833f
000000c0: 9bb6 853f b9a8 7a3f e1a8 833f 651e 753f
000000d0: 91b6 733f 1e3a 7a3f 55f0 7f3f c8de 763f
000000e0: 57f4 833f 5585 7e3f c1a1 753f 954c 803f
000000f0: 5e2a 7e3f 77fb 703f f82d 843f b368 7f3f
00000100: 7f6b 813f 868e 803f e712 783f 954c 8a3f
00000110: 64ad 7b3f 0a27 7f3f a5db 7d3f ea10 833f
00000120: 9b76 793f 9735 813f 298d 7f3f 8f99 813f
00000130: c876 793f b59c 823f 85bb 843f 9bc0 7d3f
00000140: c5ca 743f 9e28 723f 136d 813f 6b3b 743f
00000150: 4fef 7c3f 8baa 773f b906 813f ad8d 7d3f
00000160: 8da7 7f3f 4ca9 823f 8260 833f e78c 823f
00000170: d67c 843f 3635 843f 7781 833f f522 873f
00000180: 480d 813f 26d4 7b3f 5cb2 803f 142f 803f
00000190: 5535 7a3f bff7 823f 3363 6f3f 5e1a 813f
000001a0: 0b8a 7c3f 67b8 7f3f 4ea7 813f 7744 7d3f
000001b0: 5038 813f 2552 733f 89c0 843f ccc5 803f
000001c0: 7ba0 7a3f 1e38 763f c23a 863f 9c93 7f3f
000001d0: 4471 753f dc90 803f c720 7a3f e0b7 823f
000001e0: d1ba 793f 83f9 803f 4d87 803f db68 863f
000001f0: 1c07 853f 738d 6a3f 97b9 823f a78c 843f
00000200: 5c0b 7f3f 2d04 7f3f 8c10 7a3f 57c2 753f
00000210: 36d1 823f 4946 833f fe9d 843f 3730 823f
00000220: c500 843f a60e 813f 6bf6 823f 0aa5 823f
00000230: 9cd1 773f 6e9d 813f f8e8 803f 81c3 873f
00000240: b8cc 7e3f 8513 7d3f 51c5 743f 8730 7b3f
00000250: dd4e 7a3f 8682 7b3f 4599 7f3f fba0 7f3f
00000260: 862c 793f 2afa 803f 2f41 7b3f 34cd 833f
00000270: 07c2 7a3f c2cc 7f3f 05ca 823f f96e 7e3f
00000280: 97bd 723f 18cb 7e3f 1592 723f 4be9 7e3f
00000290: 8365 7d3f d06f 803f 3191 7c3f 0428 7d3f
000002a0: 9db4 793f 8046 813f 97fc 7f3f 50d4 7f3f
000002b0: 0a72 803f f393 7d3f 40e6 823f 54aa 823f
000002c0: 0185 7b3f 9c96 7c3f c9b9 7c3f 841d 823f
000002d0: 93fa 723f 6765 7d3f 9677 823f 5f1c 803f
000002e0: ee3c 7e3f c82e 803f 870f 833f 2155 7a3f
000002f0: 452f 6f3f 10cc 833f 573c 753f 06fb 7f3f
00000300: 5669 833f 6a94 7f3f fe2c 773f 0917 703f
00000310: 988a 843f 3d32 7b3f 567f 843f c407 813f
00000320: 8918 833f 641f 723f f9b8 783f 265b 813f
00000330: 1ec4 833f 5efe 7f3f e306 823f 90da 803f
00000340: 3f13 7b3f f376 7f3f aaf8 7c3f 2a77 7d3f
00000350: 803f 793f 3005 853f b664 7e3f 9cc9 7e3f
00000360: d19f 7a3f 71ed 743f b387 7c3f 89ef 7c3f
00000370: b2a8 723f 48ab 853f 5956 823f ec1e 7d3f
00000380: 6da4 7a3f 5a16 813f a59c 773f 66fc 813f
00000390: 9d80 803f 90f1 7c3f 3046 803f c407 7a3f
000003a0: f8cb 823f 7a09 7e3f b0ff 7c3f 4a45 813f
000003b0: 0989 803f 9cae 7d3f 3f71 833f 6d6e 803f
000003c0: 76c4 843f db47 7a3f f8ad 7b3f 2bec 7e3f
000003d0: 24c8 793f 483d 823f 2204 7a3f 75f8 743f
000003e0: 6665 813f 15ff 7f3f 2b11 843f 88d2 803f
000003f0: 3dce 803f 547c 753f 3131 7a3f 3bbf 7e3f
1.0140021 1.0052334 1.0104234 1.0123255 1.011113 0.9440806 1.0249145 0.9878519
0.9848904 0.95023525 1.0160874 0.98031586 1.0402436 0.9956861 1.0126133 1.0324509
1.0376399 0.99855685 1.0065084 0.9936265 0.934428 1.0171274 0.979909 0.9705885
0.98908263 0.97380376 1.0234315 0.98734874 0.99364316 0.9602283 1.0443295 1.0275999
1.0445755 0.9845939 1.061046 1.0020764 0.9872315 0.99426794 0.9946995 0.9778761
1.0318305 0.9962824 1.0220592 0.96282446 1.0065907 1.0107785 0.9817729 1.0310981
1.0446352 0.979137 1.0285913 0.95749503 0.9520045 0.9774493 0.9997609 0.9643369
1.0308942 0.994222 0.9594994 1.0023371 0.992834 0.94133705 1.0326529 0.99769133
1.011093 1.0043495 0.9690384 1.0804621 0.9831145 0.99668944 0.99163276 1.0239537
0.974466 1.0094479 0.9982477 1.0124987 0.9744687 1.0204073 1.0369726 0.9912202
0.956219 0.94593227 1.0111412 0.95403165 0.98802656 0.967446 1.0080177 0.99044305
0.9986504 1.0207915 1.0263827 1.019925 1.0350597 1.0328739 1.0273885 1.0557543
1.0082178 0.9837059 1.0054431 1.0014367 0.9773763 1.0231856 0.9351074 1.0086172
0.98648137 0.9989075 1.0129182 0.98932594 1.009531 0.9504722 1.0371257 1.0060363
0.97901124 0.9617938 1.0486681 0.9983461 0.95875955 1.0044208 0.97706264 1.0212364
0.97550684 1.0076145 1.004129 1.0500749 1.0392795 0.91622084 1.0212888 1.0355424
0.9962671 0.99615747 0.976815 0.95999664 1.0220096 1.0255824 1.0360715 1.0170964
1.0312735 1.0082595 1.0231451 1.0206616 0.96804214 1.0126169 1.0071096 1.0606538
0.99531126 0.9885791 0.9561358 0.9812092 0.97776586 0.9824604 0.99843246 0.9985501
0.9733356 1.0076344 0.9814634 1.0296998 0.9795231 0.9992181 1.0217901 0.9938808
0.9482054 0.99528646 0.94754153 0.99574727 0.9898302 1.0034122 0.98659045 0.98889184
0.9754122 1.009964 0.99994797 0.9993334 1.0034802 0.9905388 1.0226517 1.020823
0.9824982 0.9866731 0.98720986 1.0165257 0.94913596 0.9898285 1.0192745 1.0008658
0.9931172 1.0014277 1.0239114 0.97786146 0.934315 1.029665 0.95795196 0.99992406
1.0266521 0.99835837 0.9655303 0.9378515 1.0354795 0.9812353 1.035136 1.0080495
1.0241863 0.9457915 0.97157246 1.0105941 1.0294225 0.9999751 1.0158352 1.00667
0.9807624 0.9979088 0.9881693 0.99009955 0.9736252 1.0392208 0.9937242 0.9952638
0.9790011 0.95674807 0.9864456 0.98803 0.9478866 1.0442896 1.0182601 0.9887531
0.97907144 1.0084946 0.96723396 1.0155151 1.003925 0.98806095 1.002142 0.976681
1.0218496 0.9923321 0.9882765 1.009927 1.004182 0.9909456 1.0268935 1.0033699
1.0372455 0.9776589 0.9831233 0.99579114 0.97571015 1.0174952 0.97662556 0.95691615
1.0109069 0.999986 1.0317739 1.0064249 1.0062939 0.95892835 0.9773131 0.99510545

bn1.bias f4 [256]
00000000: f4fe c4bd 4ecc fcbd 6399 cdbd ff15 94bd
00000010: 015d 97bd 29f1 afbd d9b6 bfbd 5845 b9bd
00000020: 8c03 22be 3e5e 07be b289 8ebd 38ec c8bc
00000030: ca66 adbd 8d93 8abd 62d5 51bd 6455 8abd
00000040: 6d6b 99bd 9bea d1bd 20ef c3bd 1d83 dfbd
00000050: e10b 18be 5edf b9bd 1c5b dcbd efcc 84bd
00000060: 71d7 9dbd be01 1bbe 18fa 90bd abfb 86bd
00000070: b742 c8bd 21c6 2dbe 4823 acbd ae84 bebd
00000080: 8f26 babd 931b 0ebe 01e4 f3bc 6749 08be
00000090: 3685 ecbd 08b5 6fbd 5dd8 f6bd 0528 a0bd
000000a0: 5e03 49bd 6236 90bd 39e5 a8bd 4195 1ebe
000000b0: de9b dcbd 96c7 ba3c 86c0 a7bd 0822 7fbd
000000c0: ce78 9dbd 14f1 d3bd 6562 b5bd 5b2d 25be
000000d0: de6c c3bd 7ab7 e6bd 9a97 e5bd bc78 ecbd
000000e0: 9e22 88bd 4be9 fabd a2c6 49be b076 01be
000000f0: e12b f9bd 95a1 46bd e1bf 69bd 9193 dbbd
00000100: a62c 8cbd ed71 bcbd 7b9d 15be 556f afbd
00000110: 3fa2 1bbe a2ca 0dbe 8f18 e7bd 2357 4bbd
00000120: 5651 24be cdc3 a9bd 4761 a9bd 0952 75bd
00000130: c119 68bd 5cf6 aabd 2cd2 a6bd 43c9 c7bd
00000140: 478c 0fbe aefd 12be d12d 74bd c9a6 08be
00000150: 3cdf 0cbe f052 20be 7c93 2bbe ae26 09be
00000160: 05a0 99bd 9cab a3bd 0578 38bd 20c8 acbd
00000170: 302e 77bd bdce bbbd 4779 eebd c905 15bd
00000180: c0c5 debd d6bf d7bd 604d 9bbd 8437 f2bd
00000190: 08a8 a0bd 32b1 c8bd 6d1f acbd 46b2 fbbd
000001a0: 2e19 86bd 8463 1dbe 138f acbd 817e bebd
000001b0: b800 b4bd c0d0 a9bd 416b f1bd 86b4 c3bd
000001c0: 793c 42be f7d8 40be c8ec afbd d911 b5bd
000001d0: 768c c0bd 698d e9bd e0d9 cfbd 13d0 c6bd
000001e0: 7067 44bd 91a4 13be f6c7 d0bd bedd cbbc
000001f0: 32bc 13bd 4442 47be 158f a5bd 40d6 72bd
00000200: 4935 ecbd 6554 f7bd b37e e3bd 3477 bfbd
00000210: b7ea cfbd d3f8 adbd f590 59bc 37d5 8abd
00000220: cf68 96bd b467 f1bd c762 94bd 735d 0fbe
00000230: d4a6 c3bd c45e e6bd 38f7 edbd 7363 8fbd
00000240: f111 cdbd 0fc0 85bd 8e33 0cbe b213 09be
00000250: 5969 c6bd e52a 26be e85d b5bd e8a7 debd
00000260: 547c 16be 3ee9 6fbd 9ba6 0abe 875c 1abe
00000270: 4313 1abe 0441 b2bd 694e 3cbd 5a23 adbd
00000280: 1f0b 18be 7df7 83bd 2dd2 e6bd 6411 e4bd
00000290: 1487 bdbd 4230 2dbd 08da 8abd 21e3 c6bd
000002a0: 119a 8abd 468a a4bc 66fc 11be bbe7 a6bd
000002b0: df35 adbd 8a24 d6bd 68ce e1bd e98c e7bd
000002c0: b237 d9bd b85e adbd c6c9 20be ee80 52bd
000002d0: c128 f9bd b5ad b6bd ea52 1fbd 863c 46bd
000002e0: 146d 05be a449 9dbd 78e7 b3bd 9ef9 0dbe
000002f0: 904d 34be aa17 73bd c823 26be 7602 fcbd
00000300: ae3d 2cbe 93df b1bd 2a47 3bbe 2b2e e8bd
00000310: dc91 cebd 99ff 0ebe c866 ebbd 4ee3 0bbe
00000320: 943c 16bd 90a2 17be a52a 89bd c3d1 a2bd
00000330: 3744 71bd 4372 05be 0349 a2bd 9842 9fbd
00000340: 0029 dbbd d35e ebbd 81fc d9bd 8afc cbbd
00000350: f2c7 acbd bde9 d8bc 3384 fcbd 44ae 42be
00000360: c7d0 1abe e176 34be 3b30 9cbd bff7 8cbd
00000370: 3ac2 e8bd 9418 9ebd 8959 f2bd 9097 ddbd
00000380: e650 16be b852 15be 0c70 c2bd 927f acbd
00000390: 0bb5 fcbd 2bb4 e5bd d406 35be 258c dcbd
000003a0: 676c 44bc 64c1 80bd a6f3 8ebd 03fb cebd
000003b0: 9796 c1bd 89bb dabd e153 44bd 7271 cdbd
000003c0: 2f7c 98bd c63c 7dbd 813d 05be 5c83 43bc
000003d0: 8c2d dfbd 8c96 dcbd 9a1b 07be e9ad 0cbe
000003e0: 80c1 85bd d58d ddbd babf 88bd 222e e4bd
000003f0: 6476 93bd d32b 6abd e976 88bd b09b a8bd
-0.09618941 -0.123436555 -0.10039022 -0.07230758 -0.07390786 -0.085909195 -0.09361047 -0.090464294
-0.15821666 -0.13219544 -0.06959857 -0.0245267 -0.08466871 -0.06766424 -0.05122889 -0.06754568
-0.07491193 -0.102498256 -0.09567094 -0.1091368 -0.14848281 -0.09075807 -0.10759565 -0.064844005
-0.07707108 -0.15137383 -0.070789516 -0.065909706 -0.0977835 -0.16970111 -0.08405167 -0.093026504
-0.09089386 -0.13877706 -0.029771807 -0.13309251 -0.115488455 -0.058522254 -0.12052987 -0.07820133
-0.049075477 -0.07041623 -0.08246846 -0.15486623 -0.10771917 0.022800248 -0.08191018 -0.062288314
-0.07689057 -0.103487164 -0.08856658 -0.16130583 -0.09542249 -0.11265464 -0.11210556 -0.11546466
-0.06647228 -0.12251528 -0.19704679 -0.12642932 -0.12166572 -0.04849394 -0.057067756 -0.107215054
-0.068444535 -0.09201417 -0.14610855 -0.08566157 -0.1519861 -0.1384683 -0.11283981 -0.049643647
-0.16046652 -0.08289299 -0.08270507 -0.059892688 -0.056665186 -0.083477706 -0.08145556 -0.097551845
-0.14018355 -0.14354584 -0.059614006 -0.13344873 -0.13757032 -0.15656638 -0.1675548 -0.13393661
-0.075012244 -0.07991716 -0.045036335 -0.08436608 -0.060346782 -0.091702916 -0.116442256 -0.03638247
-0.108775616 -0.10534637 -0.075831175 -0.11826995 -0.078445494 -0.09799422 -0.084044315 -0.12289862
-0.065477714 -0.15369993 -0.08425727 -0.093014725 -0.087891996 -0.08291769 -0.11788035 -0.095559165
-0.18968381 -0.18832766 -0.08590084 -0.08841295 -0.09401791 -0.11403925 -0.10148978 -0.09707656
-0.04795021 -0.14418246 -0.101943895 -0.024886008 -0.03606815 -0.19458872 -0.08083931 -0.059286356
-0.11533601 -0.12076644 -0.1110815 -0.09348908 -0.1015219 -0.08494725 -0.013279189 -0.06778949
-0.073442094 -0.11787358 -0.07245403 -0.14000492 -0.09553304 -0.11248544 -0.11619419 -0.0700139
-0.10013188 -0.06530773 -0.13691542 -0.1338642 -0.09688062 -0.162273 -0.08855802 -0.10871869
-0.14695865 -0.058572046 -0.13540117 -0.15074359 -0.1504641 -0.08703807 -0.045973215 -0.084540084
-0.14847992 -0.06443689 -0.112705566 -0.111361295 -0.0925428 -0.04228235 -0.067798674 -0.0971129
-0.06767667 -0.020085465 -0.14256439 -0.08149668 -0.08457541 -0.10456188 -0.11025697 -0.11306173
-0.10606326 -0.08465332 -0.1570197 -0.05139249 -0.12165976 -0.08919851 -0.038897432 -0.048397563
-0.13029891 -0.076800615 -0.087843835 -0.13864753 -0.17607713 -0.05934874 -0.16224587 -0.12305157
-0.16820404 -0.086852215 -0.18288866 -0.11336931 -0.10086414 -0.1396469 -0.11494213 -0.13660929
-0.036678866 -0.14808106 -0.06697587 -0.07950165 -0.058902945 -0.13031869 -0.07924082 -0.077763736
-0.107011795 -0.11492696 -0.106438644 -0.099602774 -0.08436574 -0.026478643 -0.123299025 -0.1901179
-0.15118705 -0.17623474 -0.07626387 -0.06883191 -0.11365171 -0.07719532 -0.11833484 -0.10819924
-0.14679298 -0.14582336 -0.094940275 -0.084227696 -0.12339219 -0.11216005 -0.17678386 -0.10768918
-0.011988736 -0.06286886 -0.06980066 -0.101064704 -0.09452551 -0.10680301 -0.047931556 -0.100314036
-0.07445561 -0.061825536 -0.13011743 -0.011933174 -0.10897359 -0.10770902 -0.13194123 -0.13738216
-0.06531048 -0.10818068 -0.06677194 -0.11141612 -0.072003156 -0.0571707 -0.06663305 -0.0823282

bn1.running_mean f4 [256]
00000000: 6b51 e53b b0e8 91bc b5b2 413d e419 693d
00000010: 9a0c d5bc 4d3a db3c bc81 22bd dda8 4a3c
00000020: ddb6 77bc df9e 6dbd e3d5 973d f191 37bd
00000030: ff04 b93c 6b45 793d d614 7d3d 1a7e 3c3d
00000040: 8bee 3cbb b528 313d 3d8c 6abd 2c3f 30bc
00000050: 45d2 c13d 2c50 dc3c 24cc 7fbd feac cb3c
00000060: e786 62bd 8aa5 ae3d 0335 dcbb 4d02 863c
00000070: 0d31 03bd f987 383d bd93 3b3d c70e f2bd
00000080: b15e c2bd 7c87 bcbb 2134 13bb a782 473c
00000090: f718 953d 7d01 873d 0811 e3bb ff39 9f3d
000000a0: 8e24 9ebc ebf6 b73d 3c30 2d3d ecaa 0a3d
000000b0: 4aa6 eb3c 8d79 9e3c 691c 03bb d602 263d
000000c0: d960 a13d 1a5f 393c b6c1 d0bc 94d9 1b3d
000000d0: d91f 393d d7e1 94bd 80af 42ba 35a4 2e3d
000000e0: e092 e5bc c5d3 45bd 05b8 a33d ea0b 6b3d
000000f0: 3e68 8fbd 5ab2 313c b9e7 ce3d 1b07 69bd
00000100: 48be 083d d322 ff3b 44ef 1d3d 6948 5e39
00000110: b145 a3bc 4c4d 59bd bc3c babc f5b7 cf3d
00000120: c30a 08bd df11 4cbd 35c2 fabc 90ef d33c
00000130: 0f0d 60bd 25d7 083d 7255 b0bc beff 303c
00000140: de11 573d 6070 003d 07a4 1fbd 80c4 8c3d
00000150: f07c 56bc 4812 c3bb 67f7 f2bc 6fda b5bc
00000160: 7e43 f3bc 9648 93bd 1a69 d9bb 628b 99bb
00000170: e784 f3bd af27 8dbc 51ad 75bc 291a 573d
00000180: 6053 18bd 4083 ca3b 31a2 db3c fdd6 f7bc
00000190: 7700 6fba 58e1 42bc 1104 243d b9f1 afbc
000001a0: 09f0 aebd 2a07 c6bd 6b43 8ebd 00a2 ec3d
000001b0: 9e2f e6bc c1c9 b73d 6fca 2b3d 3cde 2bbc
000001c0: f5ec 933b 6829 ad3d 69db a0bd 83be a43d
000001d0: 6ab8 adbc 213b 1d3d 1246 0a3d 6f0a e6bd
000001e0: 3c9d 9b3d 65bf 263d 74ab c3bc 9751 f3bc
000001f0: d8aa 4fbd fad4 15bc f986 80bc 5c53 0dbd
00000200: 01b8 8fbd 8d47 a1bd e915 863d e6db 24bd
00000210: 9637 2f3c 656c aebd 766b 493d 22c9 9ebb
00000220: 858b ddbd b2b9 aa3c 8282 f7bc cf27 bebc
00000230: e8cb 69bc e159 18bd 56d0 443c 8351 413d
00000240: 6a7a 7d3d d4b6 de3c 79ab d73c 12f9 833d
00000250: e1b9 cbbc 1f8f a7bd aed2 953c 4d6a fb3c
00000260: 3d9d 933d f47e ffbc 021b 553d dc29 d03c
00000270: b71e 9d3d 6255 263c ec8a 273d 00e2 96bc
00000280: d75c 1d3d 16b0 08bc 60fa 2ebd 1f53 2fbd
00000290: 94b8 6ebd f9b7 90bc a745 203d 76cc 943b
000002a0: 1761 68bd ac2a 87bc 47a7 b3bc ae27 4e3d
000002b0: a0b1 9f3d 689b 0dbc a52c 27bd aa74 733b
000002c0: 552e 31bd f722 47bc cf89 2f3c 6568 44bc
000002d0: 332c 863c 01ca 8f3d 3ee2 64bd 78d8 913d
000002e0: fda1 34bd 4a20 9b3c 4ff2 8c3d 68fd fbbc
000002f0: 4994 453c ebfe 20bd a393 1c3c b314 763d
00000300: 3ed2 75bc 0c8b 6fbd 64b2 26bc e946 09bc
00000310: f1c4 0c3d cf69 acbd 8219 8f3d 65bb 72bd
00000320: 1569 d13d 04bf 213d f39e c83c 5600 babc
00000330: 1b23 a0bc 70e8 523d 21ba bebc 0afa e23c
00000340: 13cc fd3c e8f4 193c d40d 7c3c 3fe8 e13c
00000350: 54f7 6bbc 53c9 a5bc d1d2 27bd 5307 13bd
00000360: 6299 3d3c 7e87 883d b723 9ebc a3a9 3abd
00000370: e5d3 40bd 77fa 99bd 0295 0d3d 5ec1 dfbb
00000380: 43dd adbd 74e4 83bd 3363 0e3d 8f16 6abd
00000390: 1668 e4bd 1c1e 6ebd 1c03 cc3c 14c9 853d
000003a0: 06b6 70bd f041 35bd a67c 963c 5522 963d
000003b0: 2f87 c9bd 121b ed3b 0b99 953d ad40 6d3d
000003c0: 926f e7bd 564c e7bb 1053 ec3d 87c7 013c
000003d0: 54eb 76bd fd66 793d 8064 f6bc c80f 79bd
000003e0: deee c1bc 64e1 4cbd dec1 0fbd 18a1 25bd
000003f0: 2518 ff3c 92ce e73d 0d6d 93bd 48bb b4bc
0.006998231 -0.01781115 0.04728957 0.056909457 -0.026006985 0.026761198 -0.039674506 0.012369362
-0.015119282 -0.05801284 0.074138425 -0.044816915 0.02258539 0.060857218 0.06178745 0.046018697
-0.0028828706 0.043251712 -0.057262648 -0.010757249 0.09463934 0.026893698 -0.062450543 0.024862763
-0.055304434 0.08527668 -0.0067201867 0.016358519 -0.0320292 0.04505155 0.04579519 -0.11819225
-0.09490717 -0.0057534557 -0.0022461491 0.012177146 0.07280152 0.06592081 -0.0069295205 0.07774734
-0.01930454 0.08982643 0.042282328 0.03385441 0.028765816 0.01934507 -0.0020005947 0.04053005
0.078798 0.011314178 -0.025482994 0.038049296 0.045196388 -0.07269638 -0.0007426664 0.04263707
-0.028024137 -0.048297662 0.07994083 0.05738441 -0.070023045 0.010845745 0.10102791 -0.056891542
0.03338459 0.007786134 0.03855826 0.00021198545 -0.019930692 -0.05305223 -0.022734039 0.10142509
-0.03321339 -0.04982173 -0.030610183 0.025871068 -0.054699954 0.033408303 -0.021525118 0.010803161
0.052507274 0.03135717 -0.038974788 0.06873417 -0.013091311 -0.005953107 -0.029658986 -0.022198884
-0.029695269 -0.07191579 -0.0066348435 -0.004685805 -0.118905835 -0.017230837 -0.014994935 0.052515183
-0.037188888 0.006180197 0.026810737 -0.030253882 -0.0009117196 -0.011894546 0.04004294 -0.021477567
-0.08541877 -0.09669335 -0.06946453 0.115543365 -0.028098878 0.089740284 0.041941103 -0.0104899965
0.0045143315 0.08455163 -0.07854349 0.0804415 -0.0212061 0.038386468 0.03375823 -0.11232459
0.075983495 0.04070987 -0.023885466 -0.029701991 -0.05070004 -0.009145016 -0.01568936 -0.034503326
-0.07017518 -0.07874975 0.06547148 -0.040248774 0.010694405 -0.08516768 0.04917475 -0.0048457542
-0.10817627 0.0208405 -0.030213598 -0.023212342 -0.014269806 -0.03719509 0.012012562 0.047196876
0.06188432 0.027186789 0.026326882 0.06443991 -0.024868907 -0.08181595 0.018288936 0.030690337
0.07207725 -0.031188466 0.05202771 0.025410585 0.07671874 0.010152193 0.04090397 -0.018418312
0.038418617 -0.008342763 -0.042719245 -0.04280388 -0.058281496 -0.01766585 0.039128926 0.004540975
-0.056733217 -0.01649984 -0.02193035 0.05033081 0.07797551 -0.008643009 -0.04081406 0.0037148395
-0.043257076 -0.012154332 0.0107140085 -0.01198778 0.016378498 0.07020951 -0.055879824 0.07121366
-0.044099797 0.018936295 0.06882154 -0.030760482 0.01205928 -0.03930561 0.009556684 0.060078334
-0.015003739 -0.058482215 -0.010174368 -0.008378723 0.034367505 -0.08418619 0.06987287 -0.059260745
0.10225121 0.039488807 0.024489855 -0.022705238 -0.01954799 0.0514912 -0.023282113 0.027707119
0.0309811 0.009396769 0.015384156 0.027576564 -0.014402229 -0.0202376 -0.040972535 -0.035895657
0.011572214 0.06666468 -0.01930414 -0.045571934 -0.04707708 -0.075184755 0.034565933 -0.006828471
-0.08489468 -0.06440058 0.034762572 -0.05715042 -0.11152665 -0.058134183 0.024903826 0.06532493
-0.05876734 -0.044252336 0.018369984 0.07330767 -0.09840237 0.007235893 0.07304581 0.057923008
-0.11300577 -0.0070586605 0.115392804 0.007921106 -0.06028302 0.060889233 -0.030077219 -0.060806066
-0.023673471 -0.050019637 -0.035096996 -0.040436834 0.031139443 0.11318697 -0.07198534 -0.022061959

bn1.running_var f4 [256]
00000000: 88ed 163f 602c 0b3f 6b2b fa3e f7be 0c3f
00000010: 014a 053f 3f25 ff3e 496d 1b3f 63ba 083f
00000020: d44f 0c3f 9b97 0d3f 3af3 123f 5fce 063f
00000030: 1981 f83e 13d3 143f c88f 1d3f deb5 213f
00000040: 275e 083f 95ce fc3e c0f9 033f ca0e 153f
00000050: 7d2c 013f de8b 073f c3d0 0a3f 6a9f 0d3f
00000060: d047 0e3f 91b2 1f3f 2544 233f b8ff 1d3f
00000070: da5d 073f 1817 0e3f 1a22 1a3f c252 0f3f
00000080: 8dad 273f 8075 0a3f 4164 103f f0d9 f23e
00000090: e8b6 0d3f 7afa 083f 87a0 0b3f 13ec 173f
000000a0: a54b 0c3f 3f89 103f 7ca4 1d3f e42d 103f
000000b0: 09bf 1a3f 59b1 093f 77b7 153f 94d2 1a3f
000000c0: 3e66 123f c146 0c3f c3af 033f c0e1 023f
000000d0: c00c 023f 1e57 093f f19d 123f c512 0a3f
000000e0: 9905 123f d510 023f 3fa0 0f3f a85f 193f
000000f0: 63dd 103f 8dbb 0c3f 6e13 093f 6092 063f
00000100: 2275 1b3f cf29 f43e 9aa4 043f b4a3 123f
00000110: 1493 033f 865e 203f 34d7 063f e3bf 153f
00000120: 16d2 103f 030b 103f 69db 133f 1272 0c3f
00000130: 7045 0c3f 0b75 093f e292 013f ecfb 0e3f
00000140: 4ebb e83e a8a7 033f e905 173f 2f9e da3e
00000150: 5a00 073f 8636 083f 942b 0e3f 1305 113f
00000160: 5c7c 293f ffa2 063f ebe1 0c3f d209 133f
00000170: 324f 0e3f f9fc 1c3f 2101 143f 348b 123f
00000180: 6600 033f dde9 193f 415c 143f 46f2 033f
00000190: d2c1 183f 9283 0e3f 927f 0e3f ceb9 153f
000001a0: 8420 143f 2866 0a3f f24b 133f f392 fe3e
000001b0: a35e f33e a2dd 0c3f de90 053f df8a 123f
000001c0: 3196 f43e f616 133f 674e 123f 517a 0f3f
000001d0: f712 ff3e 50fe 003f 7f02 f93e 60b2 133f
000001e0: ab99 033f 9b6c 113f 1adb 093f d1d0 153f
000001f0: f6df 083f eff8 0d3f da2e 073f eadb 163f
00000200: 6ab9 083f 2c7d 083f 1fc1 053f 7080 073f
00000210: 302f 023f a954 e83e 42e6 0c3f 35ab 093f
00000220: 52bf 0a3f 00fd 043f f73b 0b3f 2e9f 0b3f
00000230: 2d42 0f3f 70d2 103f 6d27 083f 2283 223f
00000240: 6cfd 113f 627d 2c3f 8c7a 173f d48b f93e
00000250: 0123 f53e 74b0 0c3f f996 f23e 4ac5 163f
00000260: e5c1 0d3f 360a 003f 685b 133f 0677 1c3f
00000270: 4350 033f db3b 0d3f 73d2 0d3f 8cb1 0a3f
00000280: f033 123f 4915 0b3f 2fc4 013f 1be6 043f
00000290: fe40 073f cd3b 153f b61b 0c3f 6deb 143f
000002a0: 7bd3 063f 6d76 073f 46b5 073f 30f4 173f
000002b0: 67ad 103f 37aa 023f bc88 143f ff62 0c3f
000002c0: 35fc 1e3f b186 043f bf23 fb3e 0bb0 033f
000002d0: 07ef f83e 4768 0c3f a7de 023f 10c2 043f
000002e0: 1d03 0c3f 5d4a 013f 454d 0c3f efdd ff3e
000002f0: 7a6d 083f eec5 1f3f 2604 0e3f c2d2 003f
00000300: f731 0b3f 74b4 f73e 3158 033f 23b0 fa3e
00000310: 7454 113f cf56 0a3f 15c7 023f 976d 0b3f
00000320: 874c 143f 24c4 003f 892a 183f 2f1a 103f
00000330: 6958 0d3f 9820 053f 89e6 113f 4da1 063f
00000340: 3a4b 0e3f 1c99 103f ce9e 0a3f 00f3 0c3f
00000350: e477 0e3f 7ffa 0d3f 248d 183f b61c 043f
00000360: 3b60 f83e 503d 073f 1f54 183f 2a14 f43e
00000370: 7c83 183f 3b2a 113f 31db 173f 71ec 053f
00000380: 36ab 0a3f d2a7 163f 50f3 163f 8da6 0d3f
00000390: 4caf 083f dfe4 0e3f 0d57 0f3f 904d 1b3f
000003a0: f601 123f df85 0e3f 878d 0d3f f2d8 fb3e
000003b0: 5113 ff3e f481 043f fb86 0a3f 367f 083f
000003c0: 4922 023f b664 0f3f f26e 0a3f ead5 183f
000003d0: d8b9 013f 9e53 123f 1464 083f 0f33 0a3f
000003e0: aab2 133f eb55 093f b810 183f c0fe 113f
000003f0: a237 103f 48d5 113f e9f7 013f 4aa3 143f
0.58956194 0.54364586 0.4886125 0.5497889 0.52066046 0.49833104 0.6071363 0.53409404
0.5480931 0.55309457 0.57402384 0.5265865 0.48535994 0.58134574 0.6154752 0.6316813
0.53268665 0.4937636 0.51552963 0.5822569 0.5045851 0.52947795 0.54224795 0.5532137
0.5557833 0.62381846 0.63775855 0.6171832 0.5287758 0.5550399 0.60208285 0.55985653
0.6549919 0.5408554 0.56402975 0.47431898 0.5535722 0.53507197 0.5454182 0.59344596
0.54802924 0.5645942 0.6157911 0.56320024 0.60447747 0.53786236 0.5848307 0.60477567
0.5718726 0.5479546 0.51440066 0.5112572 0.50800705 0.53648555 0.5727225 0.5393489
0.5703979 0.50806934 0.5610389 0.59911585 0.5658781 0.5497368 0.5354527 0.525671
0.60725605 0.47688147 0.5181366 0.5728104 0.513963 0.6264423 0.52672124 0.5849592
0.56570566 0.562668 0.5775667 0.5486156 0.54793453 0.5369422 0.5061475 0.5585315
0.45455402 0.514277 0.58993393 0.4269881 0.5273491 0.53208196 0.55535245 0.5664837
0.6620538 0.5259246 0.55032223 0.5743686 0.5558959 0.61323506 0.5781422 0.5724366
0.5117248 0.6012247 0.5795327 0.51541555 0.59670746 0.5566951 0.55663407 0.5848664
0.57862115 0.5406213 0.5753776 0.49721488 0.4753314 0.55025685 0.52174175 0.5724315
0.47770837 0.5745691 0.5715088 0.56046015 0.49819157 0.5038805 0.48634717 0.57694054
0.51406354 0.56806344 0.5384995 0.58521754 0.5346674 0.5545797 0.52805865 0.5892931
0.5340792 0.53316 0.52247804 0.52930355 0.5085325 0.4537709 0.55038846 0.53776866
0.5419818 0.5194855 0.54388374 0.54539764 0.5596035 0.565711 0.5318516 0.6348134
0.57027316 0.6737882 0.59171367 0.48739493 0.47878268 0.54956746 0.47380808 0.5889479
0.55373985 0.5001558 0.5756135 0.61119115 0.51294345 0.5516946 0.55399245 0.54177165
0.571105 0.54329354 0.5068998 0.51913613 0.52833545 0.58294374 0.54729784 0.5817173
0.52666444 0.5291508 0.53010976 0.59356976 0.5651459 0.5104098 0.5802114 0.54838556
0.6210359 0.5176802 0.4905071 0.51440495 0.48619863 0.54846615 0.5112099 0.51858616
0.5469225 0.50504094 0.54805404 0.4997401 0.5329205 0.6241139 0.5547508 0.5032159
0.54373115 0.48379862 0.51306444 0.48962507 0.5676949 0.5403871 0.51085025 0.54464096
0.5792927 0.50299287 0.59439903 0.56289953 0.5521303 0.5200286 0.56992394 0.52589875
0.55583537 0.56483626 0.54148567 0.5505829 0.5565169 0.5546035 0.59590364 0.5160631
0.48510918 0.5282793 0.5950336 0.47671634 0.5957563 0.56705064 0.59318835 0.52313906
0.541675 0.58849823 0.58965015 0.5533226 0.5339248 0.5581798 0.55992204 0.60665226
0.5703424 0.5567302 0.5529408 0.49188954 0.49819425 0.5176079 0.54112214 0.5331911
0.50833565 0.5601305 0.5407554 0.59701407 0.506742 0.5715884 0.5327771 0.5398416
0.57694495 0.53646725 0.5940051 0.5702934 0.5633489 0.56966066 0.50768906 0.5806166

fc2.weight f4 [128, 256]
00000000: 6e41 323d dc46 213d d44a 2bbd bdc4 913d
00000010: 44e0 5a3d 0230 63bd ce9e 89bd 47be dabd
00000020: 91ec 253c c510 ad3c d681 6ebd df76 9abd
00000030: 0b24 9fbd b0d0 d6bd 6f48 e33c d8a9 42bd
00000040: ee33 5ebd 09ce 543d c350 0abd c547 d83c
00000050: 41e3 383c 39ec 3b3c 9d38 5c3c 2c79 14bd
00000060: 922a 173c a2b4 bbbd d55a 21bd c25d 91bd
00000070: 59c2 04bd a103 acbc f126 92bc d567 a7bc
00000080: 7bfc 83bd 2b2c 373d 105d 0cbc 77a1 6abb
00000090: 8a0f 5c3d f4f6 b2bb 0057 6eb9 eed1 65bd
000000a0: ffcd 5bbd 43c3 0cbd 5b93 c5bd 14c4 2d3d
000000b0: 6a3a 79bd 75b6 0b3d ebec b3bd 4a67 79bd
000000c0: e296 1fbd 841d 1ebc ac9a e3bc 8f25 89bc
000000d0: ad6c 7ebc 8eb2 423c 4e40 4ebd 48bf 9abc
000000e0: 92af 8ebd 81ce 983c 65c6 fe3c eb9a e33b
000000f0: fc6e c23c f281 2ebd fecb 713c 5cb9 11bd
00000100: 5143 23bc 8bfc 3bbd 7dae 88bd 553a 91bd
00000110: 2996 8c3c f279 43ba 27f3 ba3d 64bd 69bc
00000120: 7717 e9bc de83 07bd a0da a2bc edce ee3b
00000130: e1e4 373d f006 90bd 736f 483d 2bd7 61bd
00000140: 13a8 afbc cd88 29bd ebab 69bd a95c 893d
00000150: 83e7 9c3c 8194 e63c 686b d1bc 15b1 9cbd
00000160: 1508 613a 9598 413c 6ab1 5d3c bbf6 3a3d
00000170: ad5f a3bc 9b6a 0f3d 24e9 19bd 6685 f1bd
00000180: d984 0bbd 7f02 3bbd e312 293d 4296 cdbc
00000190: d7a7 2d3c f207 e63b 1a06 123b bec1 c63b
000001a0: aca5 0fbd 6a18 26bd dd7d 64bd fdac a93d
000001b0: bf0f 15bd 97d8 283d dab8 293a 6183 633d
000001c0: 2a5d 53bd 3387 dbbc bab7 89bc e469 2c3c
000001d0: 605a b53c 5502 15bd c987 403b bb7a 113c
000001e0: 4c04 9e3c 087f c7bc 14df 38be fdd5 26bd
000001f0: c4ae 0bbd f586 18bc 6e06 22bd c701 b4bd
00000200: ee3f 80bd 8df7 b63b d111 8dbb 0e14 313d
00000210: f09c 2f3b 2186 99ba bf80 c33c 652c 2dbd
00000220: fd39 bf3c 7d5a 5f3d 3d87 37bc 417d 373d
00000230: 9ba4 33bd d884 79bd e1d2 11bd dbcb 89bd
00000240: 555b e5bd 9c15 c1bc 9791 fc3c 66c6 993a
00000250: a61f 96bc b1ad 00bc 289f bfbd 31cb d7bb
00000260: 1d75 12bc 195f 933d 006d 4bbd 6033 513c
00000270: 3f8d 853c c4b4 bfbc fb80 913b 0f41 14bd
00000280: c0f0 37bd 59a0 873d a732 40bc 73e8 26bd
00000290: a550 ba3d 819d 5b3d 57d1 22bd 3565 62bc
000002a0: 6468 52bc 55a4 873c 4747 bbbd ebb2 b7bd
000002b0: 403f ae3c f2b7 4b3d cfb1 da3d a6be 49bc
000002c0: cbaa 3bbd 01ca 863d 58ce 16bd 2109 e6bc
000002d0: ebef 5bbd 0597 dd3c 3cb0 9a3d 9e38 34ba
000002e0: 79cf aabc 16f7 46bd 2cb7 3a3d 505f 08bd
000002f0: b4c1 31bd 35e5 27bd 1fda 2c3c 0624 b1bd
00000300: 46bf 433d 93cf 00be 378f 8a3d b6db 24bd
00000310: 9f8e 92bd 36ff f8bb 9741 db3d 1af0 13bd
00000320: 9261 b13d 1a80 323a 3be8 c43b 4b6c 82bd
00000330: 032a c3bd 5bc4 cc3c 253e 51bc bfaa bf3b
00000340: 688a 263d c6d8 393c f2a8 f93c c384 46bd
00000350: 5dc3 a73d 531a 563d a780 0fbd da4b 3fbc
00000360: 50fd 9cbd bde8 44ba 1c80 a73c 7597 363d
00000370: 0888 083c e39f 913d 1168 bc3b 50c3 3abc
00000380: e50d b2bc 2eb1 e93b 3a7e 0fbd 3af3 a3bd
00000390: 636d e0bb 5dc8 7d3b f08a b13d e8b8 b73a
000003a0: 651c febc 16b0 bfbc 9434 b1bc 66de b6bc
000003b0: 8063 b0bc dac1 abba f9b3 c6bc 25e9 a9bc
000003c0: d586 873b 9336 15bd 16f5 85bd 777b b0bd
000003d0: 6f3a 9a3c 96bf 873c 24c4 a9bb 2c77 1c3d
000003e0: 21b2 32bd fb49 e7bb 9260 d2bd 2ff1 de3c
000003f0: 101c 9abd afa5 20bc 9f2d a9bd 340e 04bd
0.04351943 0.039374217 -0.04181941 0.07117603 0.053436533 -0.055465706 -0.06719743 -0.10680824
0.010127203 0.02112616 -0.05822929 -0.07542204 -0.077705465 -0.10489023 0.0277445 -0.047525257
-0.054248743 0.051954303 -0.033768427 0.02640141 0.01128465 0.011469894 0.013441232 -0.03624837
0.009226458 -0.09165312 -0.039393265 -0.07097961 -0.032411907 -0.020997824 -0.017840834 -0.020435253
-0.06444641 0.044719856 -0.00856711 -0.0035801807 0.053725757 -0.005461568 -0.00022729859 -0.056108408
-0.05366325 -0.034365904 -0.096472465 0.042423323 -0.060846724 0.03410955 -0.08785423 -0.06088952
-0.038962252 -0.009650592 -0.027783714 -0.016741542 -0.01552884 0.011883391 -0.050354294 -0.018890038
-0.06967081 0.018653156 0.031100461 0.006945958 0.023734562 -0.042604394 0.014758108 -0.035577163
-0.00996478 -0.04589514 -0.06673906 -0.07091204 0.017161446 -0.0007456831 0.09128409 -0.014266346
-0.028453572 -0.033084743 -0.01987964 0.007287851 0.04489601 -0.07032573 0.04893441 -0.05513684
-0.021442449 -0.04139023 -0.05704872 0.06707127 0.019153362 0.028146984 -0.02556391 -0.07650963
0.0008584273 0.011816164 0.013531068 0.045645457 -0.019943083 0.035013776 -0.037575856 -0.11793022
-0.03406224 -0.045656677 0.041277777 -0.025096063 0.010599098 0.00701999 0.002228147 0.0060655763
-0.035070106 -0.040550627 -0.055784095 0.08284948 -0.03639197 0.04122218 0.00064743834 0.055545215
-0.05160252 -0.026797866 -0.01681124 0.010523293 0.02213782 -0.036379177 0.002937781 0.008879359
0.019289158 -0.024352565 -0.18053848 -0.04073142 -0.034102216 -0.00930952 -0.039556913 -0.087894015
-0.062621936 0.0055837096 -0.0043051024 0.043232016 0.0026796423 -0.0011712947 0.023865102 -0.042278666
0.02334308 0.054529656 -0.011201677 0.044797186 -0.043858152 -0.060917705 -0.0356015 -0.067283355
-0.11199061 -0.023569874 0.030831141 0.0011732101 -0.018325638 -0.007853911 -0.093565285 -0.0065855016
-0.008939055 0.07195873 -0.049664497 0.012768596 0.016302703 -0.023401625 0.0044404245 -0.036194857
-0.04490733 0.06622381 -0.011730826 -0.040749025 0.09097413 0.053617004 -0.039750423 -0.013818075
-0.0128422715 0.016557852 -0.091444544 -0.08969673 0.021270394 0.04973597 0.106784455 -0.012313521
-0.045817178 0.06581498 -0.03681788 -0.028080525 -0.0536956 0.02704955 0.07553145 -0.00068748917
-0.020850884 -0.048575483 0.045584843 -0.033294022 -0.04339762 -0.040990073 0.010550051 -0.08649449
0.047789834 -0.12579183 0.06765597 -0.040248595 -0.07156109 -0.007598783 0.1070587 -0.03611765
0.08661188 0.000680925 0.0060091293 -0.063683115 -0.095294975 0.024995973 -0.012771164 0.005849212
0.04065934 0.011343187 0.030476067 -0.048466455 0.081915595 0.0522712 -0.0350348 -0.011675799
-0.07665503 -0.00075114873 0.02044683 0.044578034 0.008333214 0.07110574 0.0057497104 -0.011399105
-0.021735141 0.007131717 -0.03503249 -0.08005376 -0.0068489774 0.0038724162 0.08669078 0.0014016898
-0.031019399 -0.023399394 -0.021631517 -0.022322845 -0.02153182 -0.0013104037 -0.02425574 -0.020741055
0.0041359463 -0.036429 -0.06540887 -0.08617299 0.018826691 0.016570847 -0.0051808525 0.03819959
-0.04362691 -0.0070583797 -0.102723256 0.027214615 -0.07524884 -0.009805127 -0.08260655 -0.032240108

fc2.bias f4 [128]
00000000: 48dc 0ebc 9563 8ebc 6403 593c 257c 3d3d
00000010: 721b b83c 94a3 c1bc 7c77 9aba 65f5 4ebd
00000020: 1fec d2bc 8f83 1bbd 4863 983c f5f9 103d
00000030: 4a64 71b9 26c4 e73c eb37 0bbb 8261 cebc
00000040: 1b0b 2fbd 8e80 563d 9af1 713d 09cd 2f3d
00000050: d16a 14bd 8d55 723d 2b3a 1fbc bc4a dd3c
00000060: 0378 253d 980b 10b9 ab20 09bd af1b bbbb
00000070: e11a a0bc 9f01 733c 02dd d4bb 2c0a cd3c
00000080: 7112 2fbd beac 223d 154b 183d 67fe 933c
00000090: cd0b c1bb c9ee 2dbd d686 253d eceb f5bc
000000a0: 6178 2a3c 898b 51bd cfb7 6cbc 4875 d93c
000000b0: 71f9 313d 8c22 d63c af5c be3b 0480 c2bc
000000c0: 08e4 98bc 4124 89bb e532 a9ba c29d d73c
000000d0: 8664 ce3b 1396 27bc 45be c93c 6421 75bb
000000e0: b822 55bc 0032 543c 56b6 0bbd f1d5 acbc
000000f0: a703 5f3d f89b 153d 498e 51bd 0c92 41bc
00000100: de5a e2ba 02b5 eabc b25b 43bd 0c1e 493b
00000110: 7dbd 623d 597c ba3c f111 06bc 9e1b 5a3c
00000120: 9c2f 55bd 8292 c1bc f842 ccbc 270c 2d3d
00000130: bdc5 3b3d a049 163d 84d6 623d 9ae7 1a3d
00000140: e0e1 b0bc 06fc 4e3d 5386 3d3d 9dde b0bc
00000150: b9e8 f63b b37c 4ebd 3970 50bd 0e65 99bc
00000160: b046 4a3a d271 a9bc c3c7 343d 8a76 3cbc
00000170: 2fd1 7bbc 7bbd 09bd e6b6 bdbc 76ec 3b3d
00000180: ee18 07bd 6b94 093d 28ea 103d d045 3f3d
00000190: a16e 1e3b b356 1c3c dd87 4e3c b561 87bd
000001a0: 4048 413d 32ac 45bc 763c d33c 32eb 4a3b
000001b0: ed59 74bb 1c4c 11bd c8b9 ea3c 2abb 9c3b
000001c0: a14c 3b3d 5e7b 3dbd c364 a7bc 3d99 ef38
000001d0: d1f9 48bd ce58 473c 4bc5 803c e897 58bc
000001e0: afa8 0fbd 0311 eebb 2b45 3fbd 1579 0c3d
000001f0: 0e0f 38bd b00b 533d 4b60 613c d331 1f3d
-0.008719511 -0.017381469 0.013245437 0.04626097 0.022474024 -0.02363757 -0.0011784877 -0.050526995
-0.025747357 -0.03796726 0.018602028 0.035394628 -0.00023020912 0.028291773 -0.0021243047 -0.02519298
-0.0427352 0.052368693 0.0590683 0.042920146 -0.03623468 0.05916362 -0.009718458 0.027013175
0.040397655 -0.00013737229 -0.03347842 -0.0057100873 -0.019544067 0.0148319295 -0.0064960727 0.025029264
-0.042742196 0.03971552 0.03718098 0.018065644 -0.0058912993 -0.04246405 0.040411793 -0.030019723
0.010404677 -0.05115846 -0.01444812 0.026545182 0.043450776 0.02613952 0.0058093886 -0.023742683
-0.018663421 -0.00418523 -0.0012908845 0.026320342 0.0062986044 -0.010228652 0.02462686 -0.0037403936
-0.013008766 0.012951374 -0.034109436 -0.021098109 0.054446843 0.036525697 -0.051161084 -0.011814605
-0.0017269512 -0.028650764 -0.04769487 0.0030688075 0.05535649 0.022764372 -0.0081829885 0.0133122485
-0.052047357 -0.02362943 -0.024934277 0.042247918 0.045842875 0.036691308 0.05538036 0.03781853
-0.02159208 0.050533317 0.04627068 -0.021590525 0.007535067 -0.05041189 -0.050888274 -0.018724944
0.0007716222 -0.020684157 0.04413582 -0.011502871 -0.0153696975 -0.03362797 -0.023158502 0.045879804
-0.03298276 0.033588808 0.03537956 0.046697438 0.0024174827 0.009542155 0.0126056345 -0.06610433
0.047188044 -0.01206498 0.025785666 0.0030962941 -0.0037285045 -0.035472974 0.02865304 0.004783054
0.045727376 -0.04626023 -0.02043379 0.00011424951 -0.04906637 0.012167169 0.015719077 -0.013219811
-0.03507298 -0.0072652115 -0.046696823 0.03429516 -0.044936232 0.051524818 0.013755868 0.038865875

bn2.weight f4 [128]
00000000: 684d 823f 902d 793f 1cf2 7d3f 1034 773f
00000010: fec5 833f 11ee 723f 18a8 823f 3712 803f
00000020: 4683 813f 9f86 773f 8ae3 7f3f 1c5f 813f
00000030: 0a32 7c3f 86aa 793f 872c 7f3f d357 813f
00000040: 15c1 843f e753 7b3f e2ef 803f 72a5 813f
00000050: da53 853f 2eaa 7d3f caca 763f e097 7a3f
00000060: 65ac 803f a8d7 793f fa1f 833f e02c 7d3f
00000070: f7b9 843f 9597 7d3f 702e 773f cac7 833f
00000080: a2ed 7c3f 2a49 753f dcee 7b3f df3b 803f
00000090: 4077 7d3f 54a2 7c3f 652d 743f 563b 7e3f
000000a0: dfea 7c3f 5cf4 7e3f 993c 803f 6678 7a3f
000000b0: 5e23 7c3f 5a38 7e3f d6cb 813f 7cb0 7d3f
000000c0: 73d4 703f e57f 803f de5e 823f 3d9e 7b3f
000000d0: a844 803f 42b8 763f 6bb4 7c3f 4cc7 7c3f
000000e0: e101 7e3f 7182 863f 1aea 813f 7948 793f
000000f0: 7573 7d3f b0b6 803f e63e 7a3f 3cb2 7e3f
00000100: c99f 773f bdb8 813f 239d 833f 31ad 7e3f
00000110: 17a9 7b3f 9a0c 783f 2694 833f 5cbd 853f
00000120: 65e7 793f 5edd 823f 573d 843f 8dc7 803f
00000130: 46a4 7a3f 3e8c 7f3f 0427 753f 01ec 753f
00000140: 2086 7d3f 3ea5 823f b457 813f a537 803f
00000150: 9f0f 843f a193 7e3f 504f 783f 4a5d 803f
00000160: e6d2 823f 54b3 7e3f cc33 823f cd2a 743f
00000170: d1bc 833f eb9a 803f 8bee 803f 6a53 853f
00000180: 80c1 803f a2bd 7f3f 9bbc 813f f317 813f
00000190: 6747 7c3f 7371 803f 1911 813f 8cb3 7a3f
000001a0: f80d 793f 9847 7f3f 45fb 813f bc95 743f
000001b0: 8833 803f 3ada 823f f174 793f 01a8 7a3f
000001c0: 3524 7c3f e660 803f 71ab 813f 232f 803f
000001d0: 441d 793f 1266 7d3f cc72 813f 09b7 7f3f
000001e0: 51ae 7e3f fb30 7e3f 91ac 7c3f 12fe 813f
000001f0: e5b3 793f d142 7d3f 2a80 803f deea 7f3f
1.0179873 0.9733515 0.99197555 0.96563816 1.0294797 0.9489451 1.0207548 1.0005559
1.0118186 0.9668979 0.9995657 1.010715 0.98513854 0.97525823 0.9967732 1.0104927
1.0371424 0.981749 1.0073206 1.0128615 1.0416214 0.990878 0.9640318 0.9788799
1.0052611 0.9759469 1.0244133 0.988966 1.0369252 0.9905942 0.96555233 1.0295346
0.988001 0.95814764 0.98411345 1.0018271 0.99010086 0.98685193 0.95381767 0.9930929
0.98795885 0.9959161 1.0018493 0.97839963 0.98491466 0.99304736 1.0140331 0.9909742
0.9407417 1.003903 1.0185201 0.9828833 1.0020952 0.96374905 0.98712796 0.987416
0.99221617 1.0508558 1.0149567 0.9737621 0.990043 1.0055752 0.97752225 0.99490714
0.9672819 1.0134503 1.0282329 0.9948302 0.98304886 0.9689423 1.0279586 1.0448413
0.97618705 1.0223806 1.033122 1.0060898 0.9790691 0.9982337 0.9576266 0.9606324
0.99032784 1.0206678 1.010489 1.0016981 1.0317267 0.99444014 0.9699602 1.002847
1.0220611 0.99492383 1.0172057 0.9537781 1.0291997 1.0047277 1.0072798 1.0416081
1.0059052 0.9989873 1.0135683 1.0085434 0.9854645 1.0034622 1.0083343 0.97930217
0.9728694 0.9971862 1.0154806 0.95540977 1.0015726 1.0222847 0.97444063 0.97912604
0.9849275 1.0029571 1.0130445 1.0014385 0.9731028 0.9898387 1.0113158 0.99888664
0.99484736 0.9929349 0.98700815 1.0155661 0.9754012 0.9893008 1.0039113 0.99967754
